model/model_analog_needle.tflite (tflite, 315584 bytes, 14 tensors)

sequential/batch_normalization/FusedBatchNormV3_add_param f4 [3]
-0.5998097 -0.37424338 -0.36789435
00000000: 218d 19bf d49c bfbe a65c bcbe

sequential/batch_normalization/FusedBatchNormV3_mul_0_param f4 [3]
0.004364681 0.0033091172 0.003235775
00000000: 9905 8f3b c6dd 583b 4c0f 543b

sequential/conv2d/Conv2D/ReadVariableOp f4 [64, 5, 5, 3]
0.04479867 0.15933366 0.191583 -0.03703007 0.06211439 0.09484236 -0.16116303 -0.11455541
-0.08677822 0.12940824 -0.017208192 -0.0055698855 -0.10095924 -0.15227374 -0.12643741 -0.04684835
-0.044615448 0.022736246 0.102172196 0.02484084 0.11984032 0.14398767 -0.06285111 0.022284342
-0.15912494 -0.26780483 -0.23378459 0.07779735 0.021451565 0.0046802354 0.031672567 0.024119552
0.076454155 0.019372666 -0.036436368 -0.049348924 -0.0050037596 -0.014990549 -0.04829303 0.111249164
0.019532153 0.027005885 0.019220065 0.015441171 0.013008683 -0.045967676 -0.05254924 0.05119199
-0.11028456 -0.04374835 0.033048727 -0.026732868 -0.020720992 -0.025466379 0.13114227 0.08477015
0.107434176 0.0142086875 0.038212832 0.058941193 0.037952036 0.029284414 -0.058424924 0.015169054
-0.07625554 0.04403898 -0.08067114 -0.022843702 -0.026068816 -0.029918702 -0.027042368 -0.053913143
0.07077149 0.031069359 0.02771869 0.06403144 -0.013430683 -0.035107415 0.08332502 0.030400189
0.009855904 -0.04787416 -0.09363231 -0.117015354 0.017731959 -0.021947928 -0.021955654 -0.0068929847
-0.05249145 -0.10071841 0.03764859 -0.0024624474 0.016392857 0.051858634 0.07089273 -0.004226674
0.10482898 -0.0065066726 0.08966005 0.061628666 0.023940211 0.061964635 -0.05932855 -0.13475713
-0.011137831 -0.027624246 -0.07926581 -0.044085864 0.0027838566 0.04997616 0.116076194 0.10193255
0.05987614 0.086481355 -0.084699325 -0.11958249 -0.070375875 0.06886504 -0.057288755 0.06886545
0.035924003 -0.023002543 0.008377203 0.006058803 0.028138243 0.033693403 -0.15222451 -0.08666011
-0.0011509254 -0.07373357 -0.043067146 -0.026656408 -0.13209052 -0.11041141 -0.019291706 -0.2692266
-0.19176722 -0.13955481 0.04297555 0.1511607 0.1335713 0.063856006 0.10135813 0.03544728
-0.052236173 -0.039202977 0.04194635 0.072085105 0.09179819 0.07745092 -0.07061681 0.090331174
0.049682975 -0.09527829 0.053455926 0.043223515 -0.13140519 -0.006695455 -0.0931507 -0.17817232
-0.09889477 -0.14726992 0.060232658 0.0494828 0.04892599 -0.010759909 0.100959875 -0.0047592334
-0.049539864 0.046699412 0.042259943 -0.06655241 0.07089081 -0.026809182 0.07370388 0.076861255
0.007434458 0.11185867 0.10018871 0.015484968 -0.17995189 0.015238612 -0.008365389 -0.06614814
0.03934115 -0.070981026 -0.011933943 0.03454696 -0.06411239 -0.0015338633 0.049850915 -0.04374683
-0.0026045074 0.06787832 -0.03895028 0.008953261 0.042144552 -0.014797207 -0.056117747 -0.08376651
-0.15419285 0.079190575 -0.0005002804 -0.08874352 0.071238846 -0.024419049 -0.054968458 0.043764766
0.032392405 -0.0360389 0.06902727 0.049631786 0.03903217 0.068839274 -0.010669791 -0.12196577
0.17518154 -0.004618164 0.0907866 -0.022490429 -0.132763 -0.073247306 0.14574201 -0.08815661
-0.059181474 0.12346971 0.06857567 0.019219764 -0.08061742 0.0067688557 -0.06682224 -0.2201917
-0.1909549 -0.10512485 0.10892375 0.18625765 0.18572778 -0.059000693 0.0009408971 0.08624311
0.110083364 0.060586378 -0.03938871 0.0034176188 0.0035403024 0.049565997 -0.1939352 -0.23794132
-0.1863584 0.0063922578 0.0854309 0.020712666 -0.011496156 0.05213941 0.10253519 0.093261674
00000000: cf7e 373d 5d28 233e 552e 443e d8ac 17bd
00000010: a96b 7e3d b63c c23d ec07 25be 079c eabd
00000020: c8b8 b1bd 9883 043e 32f8 8cbc 9683 b6bb
00000030: b8c3 cebd a6ed 1bbe cf78 01be 0ee4 3fbd
00000040: b0be 36bd 5d41 ba3c a83f d13d 047f cb3c
00000050: d76e f53d 8171 133e 15b8 80bd a78d b63c
00000060: a6f1 22be b71d 89be 3a65 6fbe 3854 9f3d
00000070: 31bb af3c a95c 993b 18bb 013d 5e96 c53c
00000080: ff93 9c3d 6db3 9e3c 4d3e 15bd 1922 4abd
00000090: 94f6 a3bb eb9a 75bc eace 45bd 9ad6 e33d
000000a0: e501 a03c 723b dd3c 6673 9d3c f7fc 7c3c
000000b0: 5f22 553c 9a48 3cbd df3d 57bd b1ae 513d
000000c0: dfdc e1bd 7831 33bd 1a5e 073d e3fe dabc
000000d0: 12bf a9bc de9e d0bc 294a 063e f99b ad3d
000000e0: 7306 dc3d 8ecb 683c 0f85 1c3d 526c 713d
000000f0: 9873 1b3d dee5 ef3c f94e 6fbd a087 783c
00000100: dd2b 9cbd 3862 343d e936 a5bd b722 bbbc
00000110: 458e d5bc 1118 f5bc f587 ddbc 07d4 5cbd
00000120: a5f0 903d 2b85 fe3c 4e12 e33c ea22 833d
00000130: 5e0c 5cbc cbcc 0fbd 4fa6 aa3d d109 f93c
00000140: a87a 213c b217 44bd 4cc2 bfbd bfa5 efbd
00000150: 9d42 913c 24cc b3bc 58dc b3bc 8cde e1bb
00000160: 4601 57bd 7445 cebd 6835 1a3d 0361 21bb
00000170: 504a 863c b869 543d 3530 913d e97f 8abb
00000180: 94b0 d63d ed35 d5bb b09f b73d 576e 7c3d
00000190: 431e c43c a1ce 7d3d 7e02 73bd c6fd 09be
000001a0: 737b 36bc 3e4c e2bc 1d56 a2bd 6193 34bd
000001b0: 5d71 363b cdb3 4c3d 5bb9 ed3d 03c2 d03d
000001c0: af40 753d 231d b13d d776 adbd aae7 f4bd
000001d0: 3a21 90bd 1d09 8d3d 9da7 6abd 5409 8d3d
000001e0: 0c25 133d d46f bcbc 8940 093c ec88 c63b
000001f0: 2c82 e63c 1802 0a3d bee0 1bbe db7a b1bd
00000200: a6da 96ba a001 97bd 2d67 30bd 8a5e dabc
00000210: bd42 07be 611f e2bd a409 9ebc 12d8 89be
00000220: a05e 44be 75e7 0ebe 2107 303d dfc9 1a3e
00000230: eac6 083e f0c6 823d da94 cf3d 2b31 113d
00000240: 99f5 55bd 4d93 20bd f0cf 2b3d 5ba1 933d
00000250: b000 bc3d 979e 9e3d 8c9f 90bd 8dff b83d
00000260: 6080 4b3d 4421 c3bd 9af4 5a3d 240b 313d
00000270: 158f 06be 8c65 dbbb cbc5 bebd ce72 36be
00000280: 5789 cabd edcd 16be 85b6 763d 7aae 4a3d
00000290: 9e66 483d 544a 30bc 0dc4 ce3d 58f3 9bbb
000002a0: 50ea 4abd e247 3f3d c318 2d3d a14c 88bd
000002b0: 332f 913d ee9e dbbc 0ff2 963d 6f69 9d3d
000002c0: c19c f33b 2916 e53d bd2f cd3d aab4 7d3c
000002d0: 4f45 38be 5fab 793c fc0e 09bc ad78 87bd
000002e0: 3024 213d 805e 91bd 9686 43bc 1d81 0d3d
000002f0: 5b4d 83bd e90b c9ba 7930 4c3d e02f 33bd
00000300: 62b0 2abb ca03 8b3d 548a 1fbd b3b0 123c
00000310: c49f 2c3d fc6f 72bc b9db 65bd c78d abbd
00000320: bbe4 1dbe ab2e a23d 4025 03ba 2abf b5bd
00000330: ace5 913d 750a c8bc 9b26 61bd af42 333d
00000340: e6ad 043d 879d 13bd 2b5e 8d3d b34a 4b3d
00000350: 32e0 1f3d 9bfb 8c3d 59d0 2ebc 31c9 f9bd
00000360: ca62 333e f853 97bb 53ee b93d d93d b8bc
00000370: 06f3 07be af02 96bd 653d 153e 748b b4bd
00000380: 4668 72bd b0dd fc3d 6771 8c3d c472 9d3c
00000390: bf1a a5bd 47cd dd3b 19da 88bd ef79 61be
000003a0: ae89 43be b34b d7bd 6a13 df3d 53ba 3e3e
000003b0: 6c2f 3e3e b6aa 71bd 89a6 763a 3aa0 b03d
000003c0: 6373 e13d 6c29 783d 0e56 21bd 21fa 5f3b
000003d0: 6b04 683b b705 4b3d f396 46be e4a6 73be
000003e0: bdd4 3ebe 2576 d13b 65f6 ae3d 9cad a93c
000003f0: 605a 3cbc 2290 553d f8fd d13d faff be3d

sequential/conv2d/Conv2D_bias f4 [64]
-0.16023275 -0.1682935 -0.14390554 -0.1424081 -0.14702637 -0.12312969 -0.25751287 -0.18091373
-0.23319788 -0.18023443 -0.21362306 -0.17843069 -0.15848641 -0.12530455 -0.17302036 -0.0756779
-0.21745797 -0.07912887 -0.21324302 -0.1849426 -0.100544885 -0.13790531 -0.18490995 -0.15421559
-0.18602121 -0.23212922 -0.1379666 -0.14732814 -0.118281566 -0.12336528 -0.18362041 -0.10667032
-0.12798211 -0.21477763 -0.12849763 -0.13201627 -0.12218563 -0.1287694 -0.18127067 -0.15933704
-0.1908007 -0.1095821 -0.16934638 -0.104280286 -0.20305419 -0.216256 -0.23078103 -0.13369495
-0.08999892 -0.20398577 -0.12067323 -0.24410506 -0.23344396 -0.16586842 -0.14126003 -0.16896404
-0.15361643 -0.13654411 -0.11094443 -0.1889484 -0.16888368 -0.14457978 -0.19717476 -0.15360126
00000000: 0e14 24be 2255 2cbe f95b 13be 6ed3 11be
00000010: 158e 16be 6b2b fcbd bad8 83be 7341 39be
00000020: 6dcb 6ebe 608f 38be 01c0 5abe 89b6 36be
00000030: 434a 22be d64f 00be 402c 31be 04fd 9abd
00000040: 4dad 5ebe 510e a2bd 615c 5abe 9861 3dbe
00000050: 7aea cdbd 0d37 0dbe 0959 3dbe b1ea 1dbe
00000060: 587c 3ebe 48b3 6dbe 1e47 0dbe 30dd 16be
00000070: 9b3d f2bd f0a6 fcbd fd06 3cbe f875 dabd
00000080: be0d 03be abee 5bbe e294 03be 462f 07be
00000090: 763c fabd 20dc 03be 059f 39be 4029 23be
000000a0: 4261 43be 946c e0bd 2369 2dbe e790 d5bd
000000b0: 70ed 4fbe 3672 5dbe dd51 6cbe 54e7 08be
000000c0: 5b51 b8bd a5e1 50be 8723 f7bd adf6 79be
000000d0: ef0b 6fbe 69d9 29be 78a6 10be e904 2dbe
000000e0: a04d 1dbe 38d2 0bbe d536 e3bd b07b 41be
000000f0: d8ef 2cbe b90c 14be 2ee8 49be a649 1dbe

sequential/conv2d_1/Conv2D/ReadVariableOp f4 [32, 5, 5, 64]
0.15170221 -0.02191772 0.0043322784 0.0921858 -0.009812903 0.06955911 -0.025286714 -0.050582193
-0.07286162 -0.011287606 0.024301004 0.075262494 -0.042442564 0.06699701 -0.20982645 0.04920293
0.017311456 -0.06904777 0.06552532 -0.022293145 -0.03988875 0.0758526 0.024723567 0.09577498
0.033830274 0.07228994 -0.09234014 0.030550692 0.05309411 -0.24899198 -0.052070953 -0.0028137176
0.08681665 0.012709608 -0.07532998 -0.03648353 0.08611606 0.033093005 -0.05573628 -0.023397911
-0.043272883 -0.041733697 -0.03444952 -0.016737096 -0.095712006 0.04097639 -0.028926078 -0.052989185
-0.027564023 0.05719366 0.10147528 -0.009355303 0.030106617 -0.1510863 -0.024375793 0.06358291
-0.07018809 -0.046830896 0.110219374 0.024637306 -0.03466432 -0.07316169 -0.03656471 -0.023995088
0.065065935 -0.06022895 0.14490783 0.045035813 -0.030447355 -0.10559422 -0.058054246 -0.041211165
-0.13294965 0.043816984 -0.065962076 0.054159895 -0.04628434 -0.05593641 -0.14151832 -0.012461333
0.06516089 -0.08982745 0.006597513 -0.061313715 0.04414942 0.10249711 -0.041076772 -0.06299825
-0.0012532291 -0.026178923 0.14578299 -0.027695391 -0.029118145 0.049301524 0.054543573 0.02200098
-0.05953078 0.03517957 0.027178831 -0.057636134 -0.055028386 -0.10022469 -0.022063842 0.009444075
0.020634765 -0.012512778 0.01586158 0.0856406 0.08671166 0.05640695 0.095205665 0.026678955
-0.07302458 0.012831153 -0.052187998 0.057265434 -0.026289847 0.06233169 -0.035974372 -0.044549137
0.031403966 0.041939348 0.002695696 -0.0023680755 0.04000735 0.030535039 -0.01316812 0.012099581
-0.046419002 -0.0010384895 -0.18029019 -0.11337069 -0.040948536 -0.07492689 0.09590613 -0.111890644
0.077681996 0.14024517 -0.06921831 -0.15785004 0.019040873 -0.05049889 -0.028161928 0.13162719
0.079238534 -0.13465327 0.048801567 0.054164182 -0.09354618 -0.16956468 -0.08719346 -0.056373306
0.10346922 0.10329132 -0.008388199 -0.05460384 0.11772929 -0.037810978 0.078483716 -0.036257323
-0.04691569 0.0007869846 0.022224644 -0.084763736 0.04227564 0.06199647 0.020018253 0.094596624
0.118687205 -0.101239525 -0.05907866 0.036202703 0.07405761 0.01902229 -0.10678669 -0.038036637
0.031181442 -0.08271739 0.059506096 0.03738198 0.023150316 -0.07012997 -0.04621805 0.036061246
-0.09658216 -0.038844805 -0.012625234 -0.15810224 -0.13797086 -0.015777105 0.057190202 0.08159141
-0.20250468 0.03828018 0.051970564 0.021790413 0.04951722 0.053162552 0.055350125 0.09353058
-0.0644584 0.0019605584 0.10421266 0.070148654 -0.029630378 -0.12181392 -0.047311436 0.15430275
-0.029712263 0.013368838 0.05627501 -0.01409106 -0.00018126331 -0.008213801 -0.046801936 0.020809803
-0.004923884 -0.023110596 0.012855383 -0.10395006 0.03640039 0.03070464 -0.036676172 -0.04814627
-0.011610515 0.026592497 0.010928141 -0.017100606 -0.014305063 -0.1107255 -0.075789355 -0.12107592
0.09111175 0.024919268 0.053510576 -0.06695003 0.053107705 0.07334368 0.06537078 0.06530365
-0.019559793 -0.100189485 -0.048493985 0.06708041 0.05533508 0.07743653 -0.017841315 -0.04751652
0.10295966 0.104140945 -0.059145033 0.09318965 -0.14793569 0.04634837 0.07987955 0.048454046
00000000: d357 1b3e ca8c b3bc c9f5 8d3b e9cb bc3d
00000010: 4cc6 20bc 0275 8e3d 1526 cfbc 462f 4fbd
00000020: 7938 95bd a7ef 38bc e612 c73c 3923 9a3d
00000030: 41d8 2dbd ba35 893d bfdc 56be 0389 493d
00000040: c1d0 8d3c eb68 8dbd 2432 863d 1da0 b6bc
00000050: 6362 23bd 9c58 9b3d 1489 ca3c ac25 c43d
00000060: 9d91 0a3d c00c 943d d41c bdbd 7245 fa3c
00000070: 3679 593d c1f7 7ebe 5a48 55bd 5966 38bb
00000080: eecc b13d f63b 503c 9b46 9abd c16f 15bd
00000090: 9e5d b03d 888c 073d ba4b 64bd faac bfbc
000000a0: e83e 31bd f4f0 2abd f11a 0dbd 3c1c 89bc
000000b0: a804 c4bd dcd6 273d 62f6 ecbc 300b 59bd
000000c0: f2cd e1bc e643 6a3d 46d2 cf3d fc46 19bc
000000d0: 27a2 f63c 5eb6 1abe beaf c7bc c237 823d
000000e0: c6be 8fbd c1d1 3fbd b2ba e13d 2dd4 c93c
000000f0: 2dfc 0dbd ccd5 95bd e1c4 15bd 5991 c4bc
00000100: 4a41 853d a2b2 76bd b862 143e 7977 383d
00000110: bb6c f9bc c841 d8bd 4aca 6dbd 0acd 28bd
00000120: f423 08be 7079 333d 2017 87bd c4d6 5d3d
00000130: a694 3dbd 941d 65bd 2eea 10be 9e2a 4cbc
00000140: 1373 853d 74f7 b7bd f32f d83b 1724 7bbd
00000150: 06d6 343d 01ea d13d 1e40 28bd 3a05 81bd
00000160: 6443 a4ba 2e75 d6bc 2348 153e 72e1 e2bc
00000170: 2d89 eebc 65f0 493d 1569 5f3d 663b b43c
00000180: 8cd6 73bd 7418 103d 24a6 de3c de13 6cbd
00000190: 7265 61bd 9a42 cdbd 3bbf b4bc 52bb 1a3c
000001a0: 3d0a a93c 6502 4dbc 25f0 813c 5764 af3d
000001b0: e295 b13d f90a 673d 30fb c23d d38d da3c
000001c0: e98d 95bd c239 523c 15c3 55bd 298f 6a3d
000001d0: ce5d d7bc 844f 7f3d dd59 13bd 2879 36bd
000001e0: 72a1 003d 98c8 2b3d 46aa 303b b731 1bbb
000001f0: bfde 233d 9e24 fa3c 19bf 57bc 523d 463c
00000200: da21 3ebd ed1d 88ba fe9d 38be e42e e8bd
00000210: a7b9 27bd 4573 99bd 6f6a c43d ec26 e5bd
00000220: bd17 9f3d 6e9c 0f3e 54c2 8dbd 71a3 21be
00000230: 9bfb 9b3c edd7 4ebd d8b3 e6bc 47c9 063e
00000240: d047 a23d 8ce2 09be 27e4 473d 43db 5d3d
00000250: 2495 bfbd 5da2 2dbe 7c92 b2bd b2e7 66bd
00000260: ace7 d33d 668a d33d a86e 09bc 47a8 5fbd
00000270: 0e1c f13d afdf 1abd 12bc a03d 8f82 14bd
00000280: ab2a 40bd a44d 4e3a 7510 b63c 9c98 adbd
00000290: 3929 2d3d 03f0 7d3d 52fd a33c e0bb c13d
000002a0: 4712 f33d ab56 cfbd 77fc 71bd 4949 143d
000002b0: 84ab 973d a2d4 9b3c fbb2 dabd 4ecc 1bbd
000002c0: 3970 ff3c bc67 a9bd aabc 733d d91d 193d
000002d0: bba5 bd3c 4da0 8fbd 234f 3dbd f5b4 133d
000002e0: decc c5bd bb1b 1fbd 12da 4ebc 8ee5 21be
000002f0: 3c48 0dbe fd3e 81bc 4640 6a3d 6619 a73d
00000300: 635d 4fbe aecb 1c3d 16df 543d cf81 b23c
00000310: 92d2 4a3d fac0 593d d0b6 623d f68c bf3d
00000320: c402 84bd b67c 003b 726d d53d 19aa 8f3d
00000330: 68bb f2bc 9479 f9bd a3c9 41bd 8a01 1e3e
00000340: 2267 f3bc f808 5b3c a080 663d 30de 66bc
00000350: 8011 3eb9 2e93 06bc 63b3 3fbd 5279 aa3c
00000360: 8858 a1bb 6f52 bdbc 629f 523c c5e3 d4bd
00000370: 9318 153d 4c88 fb3c c139 16bd 0635 45bd
00000380: 083a 3ebc 82d8 d93c f20b 333c 9216 8cbc
00000390: c85f 6abc 0dc4 e2bd 7337 9bbd a7f6 f7bd
000003a0: cc98 ba3d 7e23 cc3c e82d 5b3d 191d 89bd
000003b0: 7787 593d 3635 963d 1ee1 853d ecbd 853d
000003c0: dc3b a0bc 2530 cdbd a1a1 46bd 7461 893d
000003d0: 09a7 623d 0b97 9e3d f327 92bc afa0 42bd
000003e0: 84dc d23d d947 d53d 1042 72bd 37da be3d
000003f0: 747c 17be cad7 3d3d e497 a33d c077 463d

sequential/conv2d_1/Conv2D_bias f4 [32]
-0.19018538 -0.09680977 -0.011147183 -0.14441037 0.0073772133 -0.0117073115 -0.0129325725 0.104346946
-0.026873024 0.029008038 -0.052774504 -0.058926664 -0.03047636 0.010085383 0.04437015 -0.023525482
-0.12461763 -0.010218323 -0.057862204 -0.007366575 0.031953048 -0.00885321 -0.046947427 -0.011403488
0.020819817 -0.042538825 -0.024136817 -0.052981142 0.042646807 0.004030284 -0.004802907 -0.021302275
00000000: f5bf 42be 3344 c6bd ada2 36bc 50e0 13be
00000010: 8dbc f13b 06d0 3fbc 24e3 53bc dab3 d53d
00000020: d124 dcbc 44a2 ed3c 142a 58bd 165d 71bd
00000030: 8fa9 f9bc 2a3d 253c 79bd 353d 83b8 c0bc
00000040: 8737 ffbd c16a 27bc eb00 6dbd 4f63 f1bb
00000050: 33e1 023d 0e0d 11bc f24b 40bd b2d5 3abc
00000060: 528e aa3c 313d 2ebd 93ba c5bc c102 59bd
00000070: 6bae 2e3d 7910 843b b461 9dbb 1c82 aebc

sequential/conv2d_2/Conv2D/ReadVariableOp f4 [32, 3, 3, 32]
-0.11809608 -0.025789559 -0.10206739 -0.04788215 -0.011332411 0.037941404 0.0961011 -0.037238702
-0.08711014 0.03441199 0.10040107 0.025284765 -0.048459817 0.06293652 0.041062288 -0.07138857
-0.051642127 -0.080947325 -0.064896196 -0.06854033 -0.041550938 -0.09618751 -0.011099461 0.042875946
0.005118096 -0.0013057324 0.07750522 -0.07947036 0.043608207 0.020860106 0.045326944 0.055693023
0.025626495 -0.120795354 -0.019442722 -0.19667824 0.0066615315 0.05923819 -0.07040022 -0.08129761
0.09996157 -0.086984865 -0.06613846 -0.06172555 0.039595705 0.048865747 -0.05085978 0.06361038
-0.057954025 0.0015857164 0.030353384 -0.08907586 0.037806965 0.022334864 -0.14573985 0.08605812
-0.033419732 0.01633038 0.04915181 -0.022018747 -0.041470464 -0.07562586 0.027194448 0.038516544
0.0040871515 0.12757866 -0.051320177 -0.024065854 -0.025659293 -0.058299925 -0.08946773 0.018288866
-0.10027355 -0.048872408 0.021919899 -0.034250315 -0.01865313 0.057428237 -0.08078057 0.047487874
-0.024561586 -0.04019566 0.04668457 0.007810672 -0.030869763 0.02472193 0.018522551 -0.0547643
-0.058468875 -0.015150563 0.011334115 -0.034780584 0.1221296 -0.047521695 -0.090689115 0.0805903
0.0011498672 -0.13721046 -0.06187408 -0.15088174 -0.031729423 0.032428782 -0.07222443 -0.07050316
0.043808945 0.03174237 -0.029678414 0.02448503 0.017120752 0.09738422 0.090471804 0.033752844
-0.05132409 -0.010826571 -0.08122667 -0.07818109 -0.076328985 -0.09170302 -0.0983425 -0.009676786
-0.038125377 -0.03986929 0.018161094 0.023957983 -0.008665664 0.026033206 -0.049015466 0.08089224
-0.115835905 -0.042245965 0.07506762 0.10542973 -0.022324622 -0.027553746 -0.090836406 -0.013834827
-0.010442561 0.094368875 -0.057334334 -0.023269217 -0.24577858 -0.0820581 0.0664396 -0.068217926
-0.07210186 -0.056295227 0.051857244 0.08700864 0.041101817 -0.010564509 0.19762847 0.014372805
-0.03900024 -0.09749761 -0.03156549 0.059952866 -0.03857905 -0.0703325 0.094803855 -0.09531104
0.04447469 -0.089401126 0.078982525 -0.118325345 0.08968756 0.032675814 0.0027506894 -0.01120852
-0.031162692 0.009243969 -0.0779855 0.003283737 0.051350337 -0.08653611 0.0015021102 -0.02024688
-0.06787573 -0.10202183 0.06312825 -0.008829092 0.07703837 0.07880358 -0.07624099 -0.010159063
-0.089741506 0.048701108 -0.058725595 -0.00064158964 -0.031496044 -0.099299066 0.027443295 -0.06157948
-0.10625604 -0.05981889 -0.04247975 -0.018848408 -0.09120035 -0.066724956 -0.0026357162 0.0013025495
0.04188227 0.03686201 0.0035995012 -0.035265986 0.052896224 0.09504249 -0.034892153 -0.0919732
0.07937155 0.024884418 -0.043831144 -0.07331015 -0.022683138 0.09476321 0.08765626 0.05188551
0.066272624 0.020440415 0.09377836 0.01634074 0.041845966 -0.023035044 -0.07626978 -0.07687041
-0.112650625 -0.098735526 0.08424873 0.03368932 0.045435857 -0.09247523 0.0679552 -0.08182705
0.06889496 0.08182942 0.019903488 0.088061206 -0.017995298 0.08125393 -0.012881633 0.01579773
-0.064680085 -0.0371752 -0.13035013 0.0609958 0.04101598 0.074718624 -0.03750988 0.08999998
0.031599775 0.045560062 -0.08605812 0.07561569 -0.04449263 0.0656131 -0.07871 -0.02098288
00000000: 5cdc f1bd a044 d3bc b508 d1bd 1320 44bd
00000010: 94ab 39bc 7268 1b3d a7d0 c43d 9c87 18bd
00000020: cd66 b2bd 96f3 0c3d 149f cd3d ff21 cf3c
00000030: cd7d 46bd dde4 803d ee30 283d 2c34 92bd
00000040: b286 53bd b6c7 a5bd 4ce8 84bd df5e 8cbd
00000050: 5131 2abd f5fd c4bd 83da 35bc b09e 2f3d
00000060: b3b5 a73b 1c25 abba 0fbb 9e3d 5bc1 a2bd
00000070: 859e 323d d0e2 aa3c bfa8 393d 5e1e 643d
00000080: a8ee d13c 8e63 f7bd 5846 9fbc 0566 49be
00000090: fa48 da3b bfa3 723d fe2d 90bd 5d7f a6bd
000000a0: a7b8 cc3d 1f25 b2bd 9a73 87bd eed3 7cbd
000000b0: 1b2f 223d 7327 483d 5852 50bd 2946 823d
000000c0: 3361 6dbd d0d7 cf3a a9a7 f83c 686d b6bd
000000d0: 7adb 1a3d 9bf7 b63c d43c 15be 3d3f b03d
000000e0: 21e3 08bd 4ac7 853c 6953 493d a960 b4bc
000000f0: efdc 29bd bbe1 9abd e4c6 de3c 86c3 1d3d
00000100: 83ed 853b fba3 023e 1b35 52bd c125 c5bc
00000110: 7033 d2bc e7cb 6ebd db3a b7bd 88d2 953c
00000120: 385c cdbd 6f2e 48bd 5c91 b33c 0f4a 0cbd
00000130: 73ce 98bc df39 6b3d 4970 a5bd a582 423d
00000140: 6135 c9bc 34a4 24bd 5238 3f3d aaf0 ff3b
00000150: 96e2 fcbc a585 ca3c 9bbc 973c 8850 60bd
00000160: 0f7d 6fbd 113a 78bc b9b2 393c 1676 0ebd
00000170: 151f fa3d 1ca6 42bd 37bb b9bd 870c a53d
00000180: 24b7 963a e680 0cbe ad6f 7dbd be80 1abe
00000190: b6f6 01bd 0bd4 043d 67ea 93bd f663 90bd
000001a0: 0271 333d 4a04 023d 2520 f3bc d494 c83c
000001b0: d240 8c3c 6171 c73d 4849 b93d 6c40 0a3d
000001c0: 3639 52bd ee61 31bc 2b5a a6bd 681d a0bd
000001d0: 5f52 9cbd cbce bbbd cb67 c9bd 628b 1ebc
000001e0: 5b29 1cbd fb4d 23bd 93c6 943c 8843 c43c
000001f0: 6efa 0dbc 9743 d53c 71c4 48bd d5aa a53d
00000200: 603b edbd 1b0a 2dbd 0dbd 993d 8beb d73d
00000210: 20e2 b6bc 65b8 e1bc 7008 babd 78ab 62bc
00000220: 4617 2bbc 7844 c13d 68d7 6abd 169f bebc
00000230: 61ad 7bbe 140e a8bd 7c11 883d d7b5 8bbd
00000240: 24aa 93bd d395 66bd 4368 543d 9631 b23d
00000250: 615a 283d c316 2dbc 1e5f 4a3e ea7b 6b3c
00000260: b7be 1fbd d4ac c7bd d14a 01bd 2391 753d
00000270: 1105 1ebd 7c0a 90bd 8628 c23d 6f32 c3bd
00000280: 182b 363d f017 b7bd 97c1 a13d 8f54 f2bd
00000290: 1dae b73d 13d7 053d e944 343b f1a3 37bc
000002a0: e748 ffbc 0474 173c ddb6 9fbd f733 573b
000002b0: bb54 523d d839 b1bd 74e2 c43a c9dc a5bc
000002c0: 6e02 8bbd d2f0 d0bd 6249 813d e5a7 10bc
000002d0: 4bc6 9d3d c563 a13d 3c24 9cbd 3372 26bc
000002e0: 65ca b7bd d07a 473d 408a 70bd 5a30 28ba
000002f0: ff01 01bd 4f5d cbbd c3d0 e03c c43a 7cbd
00000300: c49c d9bd a704 75bd 3fff 2dbd fa67 9abc
00000310: 40c7 babd 18a7 88bd fbbb 2cbb 4fba aa3a
00000320: be8c 2b3d 9efc 163d 9ce5 6b3b 1173 10bd
00000330: b6a9 583d a3a5 c23d 13eb 0ebd 725c bcbd
00000340: 8d8d a23d 68da cb3c 4988 33bd a223 96bd
00000350: fdd1 b9bc 3713 c23d 2085 b33d e785 543d
00000360: f1b9 873d a872 a73c de0e c03d 04dd 853c
00000370: ad66 2b3d fdb3 bcbc 5533 9cbd 3c6e 9dbd
00000380: 5fb5 e6bd da35 cabd 998a ac3d d0fd 093d
00000390: f31a 3a3d a763 bdbd 192c 8b3d f194 a7bd
000003a0: cd18 8d3d 2f96 a73d a40c a33c 6f59 b43d
000003b0: e06a 93bc 7668 a63d 7c0d 53bc 3e6a 813c
000003c0: fe76 84bd 0645 18bd 817a 05be bbd6 793d
000003d0: 5f00 283d 1406 993d f6a3 19bd e951 b83d
000003e0: c46e 013d 309d 3a3d 3d3f b0bd 66dc 9a3d
000003f0: e73d 36bd 2960 863d b532 a1bd 4ae4 abbc

sequential/conv2d_2/Conv2D_bias f4 [32]
0.04391869 0.03647538 0.017753858 -0.02400559 0.04467047 0.0526253 0.066094585 0.05466803
0.08682429 0.0031265824 0.10712945 -0.05953656 0.0448431 0.03375908 0.084316745 0.11721888
0.046600502 -0.06561736 0.055034 -0.039599396 -0.060678665 0.12782712 0.050426506 0.06462773
0.09011213 -0.02809836 0.030839907 0.044015862 0.041431244 0.07795173 0.07983509 -0.037609875
00000000: 16e4 333d 3567 153d 8a70 913c 5fa7 c4bc
00000010: 62f8 363d a08d 573d 995c 873d 96eb 5f3d
00000020: efd0 b13d 59e7 4c3b af66 db3d 9cdc 73bd
00000030: 66ad 373d f646 0a3d 42ae ac3d 7410 f03d
00000040: 2be0 3e3d 6562 86bd 556b 613d fa32 22bd
00000050: 318a 78bd 1de5 023e 068c 4e3d 8b5b 843d
00000060: b58c b83d 882e e6bc f9a3 fc3c fa49 343d
00000070: cfb3 293d 28a5 9f3d 9480 a33d d00c 1abd

sequential/dense/MatMul/ReadVariableOp/transpose f4 [128, 32]
0.088802464 -0.14677182 -0.16772833 0.037432697 -0.09935827 -0.04946588 0.049382694 0.1393158
0.080246575 0.00927531 0.035237234 0.13221695 -0.1328118 0.12195683 0.05806882 -0.037125837
0.08161187 0.015877498 0.08162526 -0.040183567 -0.1317196 -0.008622637 -0.052377373 -0.10537338
0.08457729 -0.14347066 -0.01663968 0.045356605 0.058770083 -0.011340053 -0.1105913 -0.045206673
-0.031825934 -0.17232223 -0.062404677 -0.026248718 0.055544704 0.08625369 -0.045777317 0.023948714
-0.17713635 -0.090490945 -0.21683533 -0.10263627 0.091888115 -0.11014638 0.04693187 0.09750263
0.059448503 -0.16482653 -0.023864066 0.10913458 -0.126229 0.10446238 -0.058095716 -0.10727055
-0.020374129 -0.04445919 0.11349305 0.032718167 0.04889821 -0.14992097 -0.029546583 -0.0156878
0.014978483 0.08161317 -0.25000724 0.0032357136 0.08940719 -0.1337617 0.13220066 -0.06331355
-0.1878786 -0.12934083 0.06928339 0.048547324 -0.055080228 0.08871919 0.14066847 -0.0025247924
-0.07957281 -0.060411073 -0.077061795 0.006989847 -0.18332559 -0.080537 -0.15367986 -0.034289062
-0.076577015 -0.15768287 0.004950134 -0.24526064 -0.05572091 0.081980415 0.0021807973 -0.1364836
0.12783688 0.012849243 0.13860814 -0.018859422 -0.11972074 0.082199216 -0.19836687 -0.048220932
-0.035860233 -0.06993718 -0.21672474 -0.0986178 -0.10045055 0.030022588 0.06788154 0.12869681
-0.034657262 0.13153619 -0.10123931 0.0988089 0.108187765 -0.06367136 0.023723006 0.13987781
-0.18852384 -0.08294999 -0.0623942 0.14627714 -0.0016667694 -0.14054936 -0.06221923 0.0014386623
0.048823323 0.10493677 0.07690886 0.045396402 0.036856085 0.010364491 -0.1699666 -0.03452461
-0.18623903 -0.13511483 -0.010346658 -0.040179268 0.009121294 0.16552134 0.11441361 0.12493461
-0.23704576 -0.15345559 -0.24055871 -0.14907202 0.080675356 0.041847765 -0.05796891 -0.22903891
-0.1423818 0.028430156 0.0064515383 0.0393686 -0.038253054 -0.087014325 -0.05721169 0.14852367
0.042681336 0.19154282 -0.07034669 -0.2223361 -0.018561816 -0.017428081 0.10726639 0.014162896
0.020531984 0.121044725 -0.15745677 0.06311402 0.15657434 -0.1238226 0.15526061 -0.04875653
-0.06581992 0.035220753 0.06090992 -0.07906234 0.13360715 0.19344509 -0.15657371 0.204493
-0.12257849 -0.12805288 -0.16602135 -0.12715098 0.15389296 -0.057386633 -0.11942823 0.13407706
-0.008712995 -0.16620168 0.04207926 -0.124324255 -0.16690104 -0.10019036 -0.20541765 0.05445639
0.020215204 0.038396914 -0.039999187 -0.11439264 0.0910432 -0.085851215 -0.17242016 0.09212189
-0.1217359 -0.06211227 -0.18096918 -0.058176704 0.03663539 0.08502441 0.14485969 -0.030209823
0.102304146 0.0022372403 -0.045058675 0.12500356 0.002489134 -0.080050565 0.012005113 -0.018659906
0.030201262 -0.16777849 0.116305485 0.22763227 -0.21187972 0.023113988 -0.18768398 -0.12586214
-0.021806603 -0.05672405 -0.071125835 0.007376337 -0.1965946 -0.25479925 -0.059828486 0.19761679
0.044685386 0.03770541 0.12553439 0.12586182 -0.13867208 0.024087686 0.14429575 0.06157027
-0.009582629 -0.10008096 -0.008421175 0.04857533 -0.13636135 0.1291101 0.09863197 -0.022396408
00000000: 11de b53d 5a4b 16be fac0 2bbe 0753 193d
00000010: 597c cbbd bc9c 4abd 8245 4a3d cda8 0e3e
00000020: 5158 a43d 78f7 173c eb54 103d e163 073e
00000030: d1ff 07be 81c4 f93d 92d9 6d3d 4311 18bd
00000040: 2024 a73d 8711 823c 252b a73d 8697 24bd
00000050: 81e1 06be f645 0dbc a889 56bd 00ce d7bd
00000060: dc36 ad3d f9e9 12be f04f 88bc d9c7 393d
00000070: e6b8 703d a1cb 39bc b17d e2bd a22a 39bd
00000080: e95b 02bd 3d75 30be 0c9c 7fbd 8d07 d7bc
00000090: d882 633d c6a5 b03d ff80 3bbd 1830 c43c
000000a0: 3b63 35be 5153 b9bd 150a 5ebe f732 d2bd
000000b0: d62f bc3d 6d94 e1bd a23b 403d 75af c73d
000000c0: 4680 733d 49c8 28be 937e c3bc f381 df3d
000000d0: 2d42 01be 5ff0 d53d c6f5 6dbd aab0 dbbd
000000e0: a5e7 a6bc d71a 36bd 0b6f e83d 7c03 063d
000000f0: 7d49 483d e284 19be ad0b f2bc b383 80bc
00000100: 5068 753c ce24 a73d f300 80be 440e 543b
00000110: 1e1b b73d d4f8 08be 9c5f 073e 89aa 81bd
00000120: 3f63 40be ec71 04be 73e4 8d3d 8fd9 463d
00000130: ce9b 61bd 68b2 b53d 650b 103e fd76 25bb
00000140: 12f7 a2bd 9a71 77bd 93d2 9dbd 160b e53b
00000150: b4b9 3bbe 95f0 a4bd 415e 1dbe b072 0cbd
00000160: 69d4 9cbd 9e77 21be bc34 a23b 9b25 7bbe
00000170: 9c3b 64bd 59e5 a73d b5eb 0e3b 5bc2 0bbe
00000180: ace7 023e a285 523c 4bef 0d3e 137f 9abc
00000190: 2630 f5bd 1058 a83d af20 4bbe 5083 45bd
000001a0: 2ee2 12bd 393b 8fbd 17ed 5dbe 21f8 c9bd
000001b0: 05b9 cdbd eef1 f53c 7a05 8b3d 19c9 033e
000001c0: c6f4 0dbd 6cb1 063e 8e56 cfbd 525c ca3d
000001d0: 8c91 dd3d 2166 82bd c056 c23c 213c 0f3e
000001e0: 650c 41be afe1 a9bd 1091 7fbd adc9 153e
000001f0: 8077 daba 2cec 0fbe 97d9 7ebd 7f91 bc3a
00000200: f7fa 473d 17e9 d63d 6482 9d3d 94f1 393d
00000210: 68f6 163d d3cf 293c b90b 2ebe ad69 0dbd
00000220: 72b5 3ebe 8b5b 0abe 0785 29bc 0493 24bd
00000230: 7b71 153c 6d7e 293e af51 ea3d b8dd ff3d
00000240: 20bc 72be 7623 1dbe 0655 76be 56a6 18be
00000250: 1f39 a53d 9068 2b3d cf70 6dbd 2d89 6abe
00000260: 89cc 11be 5ce6 e83c 6d67 d33b f840 213d
00000270: 3caf 1cbd 9134 b2bd ce56 6abd 9716 183e
00000280: a0d2 2e3d cd23 443e ed11 90bd 13ac 63be
00000290: f30e 98bc 56c5 8ebc 7bae db3d 7e0b 683c
000002a0: b132 a83c 4ce6 f73d 593c 21be ec41 813d
000002b0: 0655 203e b496 fdbd a3fc 1e3e edb4 47bd
000002c0: 98cc 86bd a343 103d ae7c 793d 70eb a1bd
000002d0: 50d0 083e 7816 463e dc54 20be 9d66 513e
000002e0: 6e0a fbbd 4b20 03be 8001 2abe de33 02be
000002f0: 1e96 1d3e 3f0e 6bbd ca96 f4bd 7f4b 093e
00000300: f3c0 0ebc c630 2abe 4d5b 2c3d b79d febd
00000310: 1be8 2abe 9a30 cdbd 0159 52be aa0d 5f3d
00000320: 5b9a a53c 1546 1d3d 30d6 23bd b046 eabd
00000330: db74 ba3d c3d2 afbd e98e 30be 67aa bc3d
00000340: ac50 f9bd 7069 7ebd fc4f 39be b24a 6ebd
00000350: fe0e 163d 4721 ae3d 1956 143e 977a f7bc
00000360: d684 d13d aa9e 123b 728f 38bd ef00 003e
00000370: bd20 233b 8df1 a3bd 18b1 443c a9dc 98bc
00000380: a368 f73c 20ce 2bbe 9231 ee3d 6f18 693e
00000390: fff6 58be 8c59 bd3c 3b30 40be 01e2 00be
000003a0: c3a3 b2bc 7a57 68bd 6caa 91bd 33b5 f13b
000003b0: 1850 49be 0c75 82be b70e 75bd 0e5c 4a3e
000003c0: 0608 373d fd70 1a3d 168c 003e ece1 003e
000003d0: 0e00 0ebe 8a53 c53c 44c2 133e 1c31 7c3d
000003e0: 7600 1dbc 3ff7 ccbd f8f8 09bc edf6 463d
000003f0: 4fa2 0bbe 7035 043e 8fff c93d ac78 b7bc

sequential/dense/MatMul_bias f4 [128]
0.08607996 0.1064208 0.13044865 -0.053805016 0.12083705 -0.07241183 -0.021305772 0.06382731
-0.1332707 -0.059814773 0.10079426 0.11967983 0.06131809 0.048757106 -0.10777011 0.08051175
0.055207647 -0.028952986 0.0775101 0.10656721 0.039745368 0.024312759 -0.027676936 0.067514755
-0.061326474 0.029090507 0.042213816 -0.086069055 -0.0439601 -0.042695433 0.012534475 0.063251376
-0.058692105 -0.06344136 0.08996724 0.018666064 -0.053369995 -0.0685887 0.10053145 0.069316655
-0.024813628 0.103736885 0.07244787 0.119205154 0.17921034 0.04026379 0.15877838 0.08567499
-0.10076077 -0.103053175 0.065303184 0.09849371 -0.05701686 -0.07810322 -0.03186535 -0.058120545
-0.033867307 -0.04863624 0.06677223 -0.064111404 -0.10145223 0.11381727 -0.09411316 0.094266735
0.108381 -0.017402107 0.0011277102 0.12590481 -0.033965986 0.017059082 -0.06531506 0.07120198
0.08981285 0.039402165 -0.077476114 -0.1209641 0.08732615 0.02113057 0.06999062 0.023507226
0.04551841 0.04380299 -0.03571924 0.06897932 -0.09576099 0.018292878 -0.058620963 0.25360742
-0.065184355 -0.077568226 -0.022843251 0.06758102 0.096526556 0.056709275 -0.0156502 0.06716553
0.12765658 -0.018748716 0.042696424 0.10476938 0.10651633 0.12963127 0.15740427 0.0460473
-0.0046329517 0.013042804 0.04955277 -0.06627717 0.10274199 0.06236859 -0.06374472 0.038324688
0.017137565 0.034129716 0.13970518 0.034497533 -0.19796033 0.09773071 0.107107006 -0.018205693
0.08889407 0.034976706 -0.111233175 -0.06935702 -0.021501245 -0.01328793 0.15856236 -0.046988416
00000000: b14a b03d 26f3 d93d 5594 053e a662 5cbd
00000010: 6a79 f73d a74c 94bd 7189 aebc e5b7 823d
00000020: 1d78 08be 5600 75bd 396d ce3d b31a f53d
00000030: ad28 7b3d 88b5 473d 93b6 dcbd 58e3 a43d
00000040: 6a21 623d d02e edbc 9ebd 9e3d e93f da3d
00000050: 0acc 223d 8d2b c73c beba e2bc 2d45 8a3d
00000060: 7831 7bbd 374f ee3c 65e8 2c3d f944 b0bd
00000070: 810f 34bd 68e1 2ebd 665d 4d3c f089 813d
00000080: 2267 70bd 8bed 81bd bf40 b83d 93e9 983c
00000090: 7f9a 5abd 3b78 8cbd 6fe3 cd3d e4f5 8d3d
000000a0: f345 cbbc 0174 d43d 8d5f 943d d521 f43d
000000b0: ea82 373e a5eb 243d cd96 223e 5f76 af3d
000000c0: aa5b cebd 8b0d d3bd adbd 853d 12b7 c93d
000000d0: 838a 69bd 95f4 9fbd 3e85 02bd cf0f 6ebd
000000e0: 72b8 0abd cb36 47bd e1bf 883d d74c 83bd
000000f0: 30c6 cfbd 0719 e93d 67be c0bd eb0e c13d
00000100: dcf6 dd3d dd8e 8ebc adcf 933a 31ed 003e
00000110: eb1f 0bbd 7dbf 8b3c e7c3 85bd 58d2 913d
00000120: cdef b73d 2a64 213d ccab 9ebd 07bc f7bd
00000130: 0dd8 b23d 041a ad3c 3e57 8f3d 3a92 c03c
00000140: 8371 3a3d c46a 333d 564e 12bd 0845 8d3d
00000150: 571e c4bd f2da 953c 891c 70bd d5d8 813e
00000160: 607f 85bd 17dc 9ebd c521 bbbc eb67 8a3d
00000170: b7af c53d fc47 683d d934 80bc 158e 893d
00000180: 68b8 023e e896 99bc 72e2 2e3d 5491 d63d
00000190: 3c25 da3d 0fbe 043e 962e 213e 189c 3c3d
000001a0: 04d0 97bb 7cb1 553c d8f7 4a3d 53bc 87bd
000001b0: 646a d23d 3576 7f3d 978c 82bd 59fa 1c3d
000001c0: 1464 8c3c 9acb 0b3d e00e 0f3e 494d 0d3d
000001d0: 1db6 4abe 0a27 c83d eb5a db3d 1b24 95bc
000001e0: 180e b63d bc43 0f3d 38ce e3bd 0e0b 8ebd
000001f0: 6123 b0bc 9eb5 59bc 2c5e 223e ed76 40bd

sequential/dense_1/MatMul/ReadVariableOp/transpose f4 [64, 128]
0.065024085 0.12985693 -0.16321637 0.066545516 -0.20014799 -0.08770102 -0.08952903 0.12012639
-0.18138063 0.09873903 -0.11958058 0.07335336 -0.10594819 -0.038629815 -0.17623125 -0.097289845
0.032528523 -0.10997115 -0.08147495 0.011631099 -0.15899892 -0.045311827 0.007729345 -0.022779875
-0.10016403 -0.08623351 -0.0945464 -0.14922261 -0.13413669 -0.27211174 0.088211566 -0.32925025
-0.06805266 -0.0053150584 0.17222336 0.06919481 0.050407246 0.13561815 0.10681687 -0.022750724
0.10437853 0.059543174 -0.09534873 -0.05824464 0.08610779 -0.18045321 -0.035073146 -0.10726782
-0.0076283338 -0.045194115 0.037816208 -0.011702747 -0.14148408 -0.1440778 0.025930244 0.013212364
-0.14098589 -0.05443054 -0.122054115 -0.14181828 0.16732132 0.091631465 -0.090710394 0.11124872
-0.057720844 -0.16377687 0.08044965 0.11570544 0.0860322 -0.15409303 0.020784615 0.123976246
0.15273538 -0.32695618 0.065213524 0.00035272725 0.14246786 -0.13696761 -0.026455667 -0.15887876
-0.16098408 -0.16290647 -0.0060225436 0.056062113 -0.119784154 0.06826267 0.0634017 0.0421316
-0.17678127 0.01229044 -0.12758778 0.016229142 -0.03730748 0.07764317 0.068248175 -0.39215675
0.09606282 -0.09149964 -0.053913422 -0.006123549 0.13504066 -0.15256022 0.1963605 0.1332285
0.042380296 -0.2529206 -0.066919304 -0.003995659 -0.20423986 -0.20291626 -0.09174094 0.14204687
-0.10450126 -0.04505037 0.013542727 0.1455024 -0.17083406 0.15414317 0.065337986 -0.05074554
-0.12872335 -0.025900085 0.037666194 -0.16748963 -0.16684818 -0.036070064 0.13473448 0.154009
-0.14171748 0.16726425 -0.091559045 -0.097279824 -0.041855447 -0.009172987 0.15938465 -0.099294916
-0.13959745 0.17918764 0.1098844 -0.161157 -0.018805373 0.0166117 -0.11974042 -0.03464821
0.104557246 -0.037888967 0.022659203 -0.10314936 0.24905886 0.03829399 -0.13484155 -0.1670592
-0.067395926 0.147455 -0.15614016 -0.0682427 0.096706465 0.019269733 -0.021485118 -0.18180063
0.031784367 -0.09905261 0.21189259 -0.0848531 0.1520217 0.11787339 0.12656522 -0.0009551814
0.029755514 -0.12197707 0.0402669 0.008249077 0.24155429 -0.050826937 -0.12248217 0.057331067
0.0849393 -0.05665175 -0.106579214 -0.029529465 -0.13268775 0.051027987 0.10916749 -0.15189232
-0.048629902 0.05071304 0.20530584 -0.010695564 0.066702746 0.084460594 -0.012512739 -0.12766178
-0.14801201 -0.011923131 0.024740597 -0.10673669 0.08071245 0.101799265 0.09000886 0.123974875
-0.18196043 -0.16659471 -0.10147218 -0.102207005 0.17164479 -0.06581857 -0.032739785 -0.061009176
0.1417815 -0.16665384 -0.19015113 0.0825462 -0.027577009 -0.06715314 0.18921012 0.038290475
0.12227732 0.16750476 0.15594652 -0.19789119 0.04877861 0.123572044 -0.02292692 -0.03994908
0.10813598 -0.1730472 0.0509271 -0.08212327 0.22930987 -0.06986395 0.13785557 0.18916869
-0.075950384 -0.029708108 -0.13359547 0.076823704 0.051688112 0.054706335 -0.019764652 -0.0056159473
0.01635689 -0.05305866 0.00023436265 0.11211782 0.0929681 -0.1710083 0.059749942 0.17528638
-0.20532362 0.041147597 -0.0108729005 0.16769883 -0.05267183 0.18595408 -0.006282555 0.15024224
00000000: 592b 853d 37f9 043e 3122 27be 0449 883d
00000010: 98f3 4cbe 989c b3bd ff5a b7bd d304 f63d
00000020: d8bb 39be b037 ca3d aae6 f4bd 493a 963d
00000030: 5dfb d8bd 4c3a 1ebd f775 34be e63f c7bd
00000040: a13c 053d 8e38 e1bd 57dc a6bd 5d90 3e3c
00000050: 9dd0 22be e598 39bd 7246 fd3b dc9c babc
00000060: cd22 cdbd 329b b0bd 8ba1 c1bd d0cd 18be
00000070: 215b 09be 3b52 8bbe 44a8 b43d 7d93 a8be
00000080: 315f 8bbd f129 aebb 525b 303e 02b6 8d3d
00000090: d477 4e3d 7cdf 0a3e cec2 da3d ba5f babc
000000a0: 69c4 d53d 8be3 733d 3246 c3bd ee91 6ebd
000000b0: 4859 b03d bac8 38be dca8 0fbd 3baf dbbd
000000c0: 1af7 f9bb 771d 39bd 2be5 1a3d e1bc 3fbc
000000d0: 34e1 10be 2189 13be aa6b d43c ac78 583c
000000e0: 9b5e 10be 8ff2 5ebd 82f7 f9bd d038 11be
000000f0: 4856 2b3e 47a9 bb3d 5fc6 b9bd 5ed6 e33d
00000100: b16c 6cbd 20b5 27be c9c2 a43d f9f6 ec3d
00000110: a631 b03d 90ca 1dbe 7f44 aa3c 42e7 fd3d
00000120: aa66 1c3e cd66 a7be ab8e 853d 40ee b839
00000130: 18e3 113e 3d41 0cbe 8eb9 d8bc 1db1 22be
00000140: 03d9 24be f4d0 26be c258 c5bb 63a1 653d
00000150: 6551 f5bd 4ccd 8b3d c0d8 813d 2f92 2c3d
00000160: 2606 35be d75d 493c 5fa6 02be faf2 843c
00000170: bacf 18bd 6203 9f3d b3c5 8b3d c5c8 c8be
00000180: 95bc c43d 2a64 bbbd 52d4 5cbd 0da8 c8bb
00000190: 1948 0a3e bf38 1cbe ba12 493e 0d6d 083e
000001a0: f696 2d3d cf7e 81be fd0c 89bd 04ee 82bb
000001b0: 4124 51be 48c9 4fbe ade2 bbbd bc74 113e
000001c0: c204 d6bd bd86 38bd 50e2 5d3c 95fe 143e
000001d0: 20ef 2ebe b5d7 1d3e eccf 853d 8eda 4fbd
000001e0: 0ed0 03be 6a2c d4bc de47 1a3d 6782 2bbe
000001f0: 40da 2abe 34be 13bd d6f7 093e 89b4 1d3e
00000200: 631e 11be 5247 2b3e 4f83 bbbd a53a c7bd
00000210: 9e70 2bbd 4c4a 16bc bb35 233e 225b cbbd
00000220: a2f2 0ebe f77c 373e 130b e13d 5706 25be
00000230: ba0d 9abc 4315 883c 773a f5bd 48eb 0dbd
00000240: 1c22 d63d 7631 1bbd cb9f b93c f93f d3bd
00000250: 4909 7f3e 29da 1c3d e713 0abe 9111 2bbe
00000260: e006 8abd 72fe 163e 35e3 1fbe d4c2 8bbd
00000270: 0a0e c63d 8fdb 9d3c 8f01 b0bc f229 3abe
00000280: 5330 023d 18dc cabd 5ffa 583e 76c7 adbd
00000290: 94ab 1b3e 9b67 f13d 509a 013e 2365 7aba
000002a0: d6c1 f33c 1dcf f9bd e8ee 243d 2327 073c
000002b0: 025a 773e e82f 50bd efd7 fabd fbd3 6a3d
000002c0: a8f4 ad3d aa0b 68bd 3446 dabd c7e7 f1bc
000002d0: 4cdf 07be b902 513d 3493 df3d a989 1bbe
000002e0: 2630 47bd 7ab8 4f3d b23b 523e 723c 2fbc
000002f0: 739b 883d adf9 ac3d 3b02 4dbc c5b9 02be
00000300: 7690 17be 3c59 43bc cbac ca3c c498 dabd
00000310: 924c a53d 227c d03d 9156 b83d 8ae6 fd3d
00000320: d653 3abe ce97 2abe a5d0 cfbd e851 d1bd
00000330: a7c3 2f3e e3cb 86bd 271a 06bd c2e4 79bd
00000340: 2b2f 113e 4ea7 2abe fab6 42be fb0d a93d
00000350: 2ee9 e1bc 9687 89bd 4cc0 413e 79d6 1c3d
00000360: 886c fa3d 5e86 2b3e 72b0 1f3e fda3 4abe
00000370: 14cc 473d 5713 fd3d 3cd1 bbbc a6a1 23bd
00000380: 6676 dd3d 4933 31be ef98 503d 3f30 a8bd
00000390: 35d0 6a3e d514 8fbd 032a 0d3e 70b5 413e
000003a0: e08b 9bbd 6b5e f3bc 40cd 08be bf55 9d3d
000003b0: eab6 533d c013 603d 7be9 a1bc fb05 b8bb
000003c0: e2fe 853c 0a54 59bd 3fbf 7539 079e e53d
000003d0: 0f66 be3d cd1c 2fbe 5bbc 743d 467e 333e
000003e0: 5b40 52be 628a 283d 4024 32bc 3eb9 2b3e
000003f0: 6bbe 57bd bf6a 3e3e e4dd cdbb 1ad9 193e

sequential/dense_1/MatMul_bias f4 [64]
0.21764491 -0.16081049 -0.07577138 0.14389884 -0.19901085 -0.064821385 -0.12055829 -0.123446144
-0.068103425 -0.17277718 0.22083195 0.23767062 -0.046804123 -0.063675925 -0.058800466 -0.07020472
-0.21776903 -0.08978349 -0.20617557 0.20749806 -0.23087761 0.25591418 -0.034900416 -0.036915418
0.2905545 -0.064752996 0.12225228 0.2644778 -0.02700828 0.17807171 -0.06765175 0.26913998
0.22161977 -0.1988941 0.2558356 0.0031248415 0.22385111 0.2784514 -0.23054281 -0.23654501
0.13441332 0.28054044 -0.22105916 0.17328738 -0.061924484 -0.063543715 0.1729724 -0.21075569
0.27677438 -0.21742728 0.27174982 0.2588962 -0.09469143 0.19695854 0.2833417 0.15390728
-0.021125978 -0.15322696 -0.017471189 -0.03821924 0.23532449 -0.19703732 0.27395827 0.18932694
00000000: 4fde 5e3e 81ab 24be 062e 9bbd 385a 133e
00000010: 80c9 4bbe 13c1 84bd 44e7 f6bd 55d1 fcbd
00000020: cf79 8bbd 80ec 30be c521 623e ed5f 733e
00000030: aeb5 3fbd 8668 82bd c2d8 70bd 7ec7 8fbd
00000040: d8fe 5ebe 68e0 b7bd b01f 53be 5f7a 543e
00000050: 2e6b 6cbe 2f07 833e bdf3 0ebd 9f34 17bd
00000060: 8fc3 943e 389d 84bd 675f fa3d a269 873e
00000070: 7840 ddbc 6e58 363e 008d 8abd b7cc 893e
00000080: 4bf0 623e e5aa 4bbe e2fc 823e 24ca 4c3b
00000090: 3a39 653e 2f91 8e3e 6a13 6cbe db38 72be
000000a0: a5a3 093e ffa2 8f3e 555d 62be 3f72 313e
000000b0: 87a4 7dbd 3523 82bd ad1f 313e 57d0 57be
000000c0: 5fb5 8d3e 42a5 5ebe cb22 8b3e 0b8e 843e
000000d0: 95ed c1bd 80af 493e 2a12 913e df99 1d3e
000000e0: 6310 adbc 87e7 1cbe bd1f 8fbc c78b 1cbd
000000f0: e7f8 703e 27c4 49be 4244 8c3e ecde 413e

sequential/dense_2/MatMul/ReadVariableOp/transpose f4 [2, 64]
0.08779356 -0.1488109 0.21387449 -0.09078971 -0.15714973 -0.052568395 0.1512892 0.01776579
0.048996206 -0.07668524 -0.14518878 -0.095672406 0.15733315 -0.04864567 -0.26824108 0.15903904
0.062381953 0.27127737 0.07495518 0.0052105747 0.008654927 0.24532345 0.024995564 0.12610005
0.35454443 0.19259612 0.022957187 -0.2438778 0.18227358 -0.257116 -0.0042728866 -0.3000908
-0.37889144 0.09820361 -0.2821446 0.15834579 0.115608804 0.34152862 -0.07165553 0.17847069
-0.0863496 0.3083452 0.105609074 0.052014634 -0.13891579 -0.16884273 0.1324124 -0.16711277
-0.13691446 -0.14947645 0.34535012 0.1561167 -0.14913896 -0.10637124 0.057712443 0.039547354
0.2851515 0.20494188 -0.041946903 0.05066968 0.29186434 -0.1814414 -0.4009212 0.16539267
0.33082807 -0.0935392 0.06968967 -0.054477714 0.101566985 -0.22188206 0.1455467 -0.0374829
0.14034909 0.08205526 -0.32678294 0.28109273 -0.05506974 -0.26426032 0.23724543 -0.035367507
0.08642328 -0.17721337 0.05302415 0.2749069 0.10757155 0.22099479 0.22590658 -0.26899788
-0.23870021 0.147496 0.13719474 -0.2523683 -0.067550875 0.073217995 0.0014393925 -0.13810273
-0.23613335 -0.089020245 0.083145216 -0.20155787 -0.35843366 -0.13816082 -0.18575695 0.18865933
-0.13999702 0.012102037 -0.18600404 0.21258004 -0.25238553 -0.16679344 -0.12993234 0.08804021
0.41118422 -0.14131244 0.1886916 0.32432762 -0.14106368 0.16760856 -0.37088174 0.11133681
0.058784183 -0.025775839 0.034475487 -0.26295212 -0.05953025 0.20434465 0.20764929 -0.045333534
00000000: 1ccd b33d e261 18be ea01 5b3e f5ef b9bd
00000010: dceb 20be f551 57bd 8eeb 1a3e 9089 913c
00000020: 3fb0 483d 270d 9dbd 5eac 14be e5ef c3bd
00000030: f11b 213e af40 47bd e556 89be 21db 223e
00000040: 3884 7f3d dee4 8a3e 1a82 993d 78bd aa3b
00000050: 65cd 0d3c 1236 7b3e 7fc3 cc3c 5f20 013e
00000060: d986 b53e eb37 453e b610 bc3c 1abb 79be
00000070: eda5 3a3e b5a4 83be 9203 8cbb 80a5 99be
00000080: 0ffe c1be f91e c93d 4275 90be 6625 223e
00000090: 4fc4 ec3d d7dc ae3e 22c0 92bd 05c1 363e
000000a0: 0fd8 b0bd 6cdf 9d3e 9249 d83d 4c0d 553d
000000b0: f13f 0ebe 1ce5 2cbe 1e97 073e 9c1f 2bbe
000000c0: 4e33 0cbe 5b10 19be bbd1 b03e 0edd 1f3e
000000d0: e2b7 18be 2ad9 d9bd e263 6c3d 68fc 213d
000000e0: 61ff 913e 49dc 513e 84d0 2bbd 038b 4f3d
000000f0: 3e6f 953e c6cb 39be 8b45 cdbe b25c 293e
00000100: 4c62 a93e 7b91 bfbd 75b9 8e3d 0624 5fbd
00000110: 5a02 d03d 0d35 63be 320a 153e ab87 19bd
00000120: acb7 0f3e 970c a83d 1850 a7be 63eb 8f3e
00000130: cf90 61bd 214d 87be 77f0 723e 85dd 10bd
00000140: b0fe b03d 6c77 35be da2f 593d 99c0 8c3e
00000150: 794e dc3d 754c 623e 0e54 673e 17ba 89be
00000160: d46d 74be 3109 173e c77c 0c3e 6b36 81be
00000170: 1d58 8abd 51f3 953d ffa9 bc3a cd6a 0dbe
00000180: f1cc 71be 3f50 b6bd 0a48 aa3d 3065 4ebe
00000190: 9e84 b7be 087a 0dbe 1237 3ebe e92f 413e
000001a0: 615b 0fbe 9f47 463c d877 3ebe 95ae 593e
000001b0: ad38 81be e6cb 2abe fc0c 05be 6d4e b43d
000001c0: bd86 d23e 35b4 10be 5f38 413e 450e a63e
000001d0: ff72 10be 94a1 2b3e 36e4 bdbe 8e04 e43d
000001e0: afc7 703d da27 d3bc 2b36 0d3d a9a1 86be
000001f0: fed5 73bd b93f 513e 04a2 543e a8af 39bd

sequential/dense_2/MatMul_bias f4 [2]
-0.012420503 -0.038980253
00000000: 5e7f 4bbc c2a9 1fbd
